models/onnx/sequential.onnx (onnx, 7064 bytes, 4 tensors)

sequential/dense_1/MatMul/ReadVariableOp:0 f4 [32, 6]
000000 99 7e 51 3e e6 be 86 3e a1 0a 7b bd 6e d5 58 3e
       0.2045845 0.2631752 -0.061289433 0.21175167
000010 a0 63 80 be 49 b2 46 bd 9e bf 64 bf 43 6d d6 3e
       -0.25076008 -0.04850987 -0.89354885 0.41880235
000020 5c 83 96 be 9f 3d e6 3d 82 c2 da be cb 70 24 3e
       -0.29397094 0.11242222 -0.42726523 0.16058652
000030 5b 77 88 3e 4e fd 5c be 89 65 83 bd f3 fb 9b be
       0.2665356 -0.21581003 -0.06415851 -0.3046566
000040 68 f2 85 3e 12 49 79 3e 0d 9f 82 3d b2 dc c0 bd
       0.26161504 0.2434428 0.06377993 -0.09417094
000050 09 62 f1 be dd bf bc be a5 b3 a2 3e 43 df ab bc
       -0.47145107 -0.3686513 0.31777683 -0.020980483
000060 fb ee 86 be c7 d3 83 be 85 5c b8 be d6 9d 6d be
       -0.26354203 -0.2574751 -0.36008087 -0.23204741
000070 84 13 6e 3d 3c 89 a8 be 83 a8 60 be 2b d3 cc be
       0.05812408 -0.32917202 -0.21939282 -0.40004858
000080 4a f4 26 be cb 4a b3 be 75 8b ee be 48 c3 84 3d
       -0.16304126 -0.35018 -0.46590772 0.064825594
000090 79 91 f7 bd e0 37 5c bd 82 d5 1b 3e 7e df f7 bd
       -0.120882936 -0.053764224 0.15218166 -0.121031746
0000a0 13 f2 2e 3d d4 79 b1 3d 6b 81 51 3e 10 c6 2e be
       0.04271133 0.08665815 0.20459525 -0.17067742
0000b0 03 23 16 be 09 84 96 3e ce 98 52 3d de 29 17 3e
       -0.14661793 0.2939761 0.051415257 0.14762065
0000c0 6d f2 60 be 67 4e f2 be 52 5d 5a be 27 e5 0b bf
       -0.21967478 -0.4732544 -0.21324661 -0.54646534
0000d0 a8 c7 85 3d 57 3d 34 bd e8 27 f2 3e 23 1e 0c be
       0.06532222 -0.04400381 0.4729607 -0.13683371
0000e0 a7 74 5c bd 0e 48 bd 3e 1a 73 69 bd 0f 53 a4 3e
       -0.053822186 0.36969036 -0.056994535 0.3209462
0000f0 b7 07 9d 3e 8f 13 2f be 18 b1 ca 3d cc 11 af be
       0.30669948 -0.17097305 0.09897059 -0.34193265
000100 b1 fc b4 be 0c 17 4b be 0d 88 36 be 56 7e 5a 3e
       -0.35349038 -0.1983301 -0.17825337 0.21337256
000110 6f 55 b9 3e e4 8c a1 3e 5a f7 45 be 2b aa 96 bd
       0.36197993 0.31552804 -0.19332638 -0.07356676
000120 c0 a8 1b 3d ad 37 d7 3e 5e 7a 3f 3e 5b 82 4a be
       0.03800273 0.42034665 0.18699023 -0.19776289
000130 11 14 aa 3e 88 c8 61 be 48 46 b2 3b c1 e0 88 3d
       0.33218434 -0.22049153 0.005440507 0.066834934
000140 42 04 9d bd a5 30 71 bd 5c 94 c4 3e ee f6 e2 3d
       -0.07666828 -0.05888428 0.3839444 0.11082254
000150 e7 f6 19 bf 1c f1 82 be 35 a4 8e be 77 95 e8 be
       -0.6014237 -0.25574577 -0.27859655 -0.45426533
000160 98 2a 3a 3d 0e 47 07 3f 10 47 2c bd 26 1d 19 bf
       0.045450777 0.52842796 -0.042059958 -0.598101
000170 75 9b 56 bf 76 0e 84 3e 8a 3f af be 1b 5d 7c 3e
       -0.8383096 0.25792283 -0.34228164 0.24644892
000180 4a 44 94 3e f4 0f 28 bd 2e 3f 9d 3e 96 d3 21 3e
       0.2895835 -0.04103084 0.30712265 0.1580337
000190 69 23 14 be 1f 4f 56 3e 59 a1 40 3e 54 48 06 bc
       -0.14466633 0.2092862 0.18811549 -0.008195955
0001a0 df 1b 23 be 70 df b8 be 0a ee a5 3e c9 f1 89 3e
       -0.159286 -0.3610797 0.32408172 0.2694228
0001b0 22 95 ad be 50 f6 19 bd fe d0 3a 3e 02 d2 6e 3e
       -0.33902842 -0.037588418 0.18243787 0.23322299
0001c0 86 0e 66 3e 57 6f 8f 3e 30 30 a9 3d 2c 05 40 be
       0.22466478 0.28014633 0.08261144 -0.18751973
0001d0 21 5f 44 3e 98 4a e7 bd 5a be 88 3e 41 fc b2 be
       0.19176914 -0.112935245 0.26707727 -0.3495808
0001e0 b4 2f c4 3d 6b 2c 5f bd 29 88 a9 be 1a 87 47 3c
       0.09579411 -0.05448572 -0.33111694 0.012178207
0001f0 b5 99 b0 bd a1 98 98 be f5 fe b1 3e 30 e4 d2 bd
       -0.08623067 -0.29803947 0.3476483 -0.102974296
000200 55 4c c0 3e f9 37 c6 bd cc 21 a8 be 48 46 64 be
       0.37558237 -0.09678645 -0.32838285 -0.22292435
000210 a6 9a ad bb 26 73 91 3c 2b e8 da bd 03 c8 96 bd
       -0.0052979765 0.017755102 -0.10688814 -0.07362368
000220 44 f4 25 3e 01 1e b3 3e 83 ca e7 bd 1a ab 3e 3e
       0.16206461 0.3498383 -0.11317923 0.18619958
000230 92 fa 88 bd 92 d7 64 3e 66 d7 66 be 08 a0 3c be
       -0.066884175 0.22347859 -0.22543105 -0.18420422
000240 44 07 c9 be 22 2c 03 bf 6a 13 c9 be cc a0 01 bd
       -0.39263356 -0.51239216 -0.39272624 -0.03164749
000250 5c 71 64 be 58 82 5b bd 84 d5 59 be 9a f9 53 3e
       -0.22308868 -0.053591102 -0.21272856 0.20700684
000260 d4 8c 14 3e 65 c1 43 be 0a 8e 28 be de 8a 47 be
       0.14506847 -0.19116743 -0.16460434 -0.19486567
000270 08 84 90 be e3 5e 8f be 03 73 9a be d6 36 ee 3d
       -0.28225732 -0.2800208 -0.30165872 0.11631553
000280 d0 a1 9c bd ca 3f 21 bd e0 8a 5f 3e 8d 1f b8 3e
       -0.07648051 -0.039367475 0.2183032 0.3596157
000290 46 67 33 3e 65 a4 4a 3e b1 aa 09 be d3 de 04 3d
       0.17519864 0.19789274 -0.1344402 0.032439064
0002a0 63 6e 84 3e 59 1c 8f 3c 05 fd 3a bd 5b c5 51 be
       0.25865468 0.017469572 -0.045651454 -0.20485441
0002b0 fa f8 e2 be 29 b7 41 3e c7 53 40 be 7e e8 73 3e
       -0.4433058 0.18917526 -0.18781959 0.23819157
0002c0 0a 7c 61 bd e7 8d fa bd bb 36 87 be 37 7f 32 be
       -0.055049933 -0.12234097 -0.26408944 -0.17431341
0002d0 cf ae 3f be 87 80 94 be 0f 14 bd be 17 b8 a7 bd
       -0.18719028 -0.2900431 -0.36929366 -0.08189409
0002e0 3f 14 90 bc 1a 71 c6 3e c0 83 1f 3e 0d 95 b0 3d
       -0.01758778 0.38758165 0.15577602 0.08622179
0002f0 06 75 6f 3e ef 5e 9d 3d a9 09 80 3e de 79 7b bd
       0.23384485 0.07684123 0.2500737 -0.06139552

sequential/dense_1/BiasAdd/ReadVariableOp:0 f4 [6]
000000 85 9b fe be 68 32 2a 3c 5c 51 86 be f1 4a 05 bf
       -0.49728027 0.010387994 -0.26233947 -0.52067477
000010 c3 05 e1 be e3 f8 99 3f
       -0.43949708 1.2029079

sequential/dense/MatMul/ReadVariableOp:0 f4 [40, 32]
000000 5f 82 c9 3d 81 54 06 3e 2c 64 f4 3d 63 aa c7 bd
       0.098393194 0.13118173 0.11933169 -0.097492956
000010 d5 4a 26 bc 64 51 be bd 20 01 ce 3d f6 f1 5a 3e
       -0.010149677 -0.09292868 0.10058808 0.21381363
000020 6f ce 06 3d bf 1d 0f be bd 81 79 be 6a be 85 3d
       0.032911714 -0.13976191 -0.24365897 0.06530459
000030 64 c7 08 bd 00 b5 d8 3c 31 d1 ba be d4 7f 5f 3d
       -0.03339328 0.026453495 -0.36487725 0.054565266
000040 7b 4f 69 be a8 87 42 bd 40 11 49 be 51 5c 3a 3e
       -0.22784226 -0.047492653 -0.19635487 0.18199278
000050 56 e1 8a bd cc 1e 2c 3d 7a 8f e7 3d a2 34 57 3c
       -0.06781261 0.042021558 0.11306663 0.013135107
000060 95 75 3e be 3a 99 4b 3e 4f be 40 3e 46 22 e2 3d
       -0.18599541 0.1988267 0.18822597 0.110416934
000070 74 05 55 bd 7a 39 2d 3d 07 db d1 3d f2 00 f4 3b
       -0.052007154 0.042291142 0.10246854 0.0074464018
000080 79 38 ac 3c 1c 91 f5 bd 48 1d e4 bd 66 71 69 bd
       0.021023022 -0.11990568 -0.111383975 -0.05699291
000090 bb bd 8e bd 02 71 01 3e cb f6 a2 3c 26 9c 70 bc
       -0.06969782 0.12640765 0.01989307 -0.014685666
0000a0 35 49 49 be 9a 10 ad bb b4 e1 a0 be 31 ce b6 bd
       -0.19656833 -0.00528152 -0.31422198 -0.08926047
0000b0 d0 af 12 bd e0 46 33 bd 0a ad 62 3c 2d 42 a3 be
       -0.0358122 -0.043768764 0.013835201 -0.31886426
0000c0 9b f2 32 be 93 3f b7 3c e6 a4 a7 bd 84 55 29 3e
       -0.17475359 0.022369182 -0.08185749 0.16536528
0000d0 81 d8 11 3e 97 5d 89 3d 43 0f 6d 3e ce 3b 3e 3e
       0.14242746 0.06707304 0.23150353 0.18577501
0000e0 a7 d6 91 be b4 71 6d 3d 0d c3 90 bd 1d 1e b7 3d
       -0.2848408 0.057969764 -0.07068453 0.089412905
0000f0 b4 28 7d be c1 4d 48 bd 5a 49 4c 3e dd 3f 4d 3e
       -0.24722558 -0.048902277 0.19949856 0.20043893
000100 54 d0 a4 3d 24 a8 10 bd a7 a8 35 3d 23 94 1a 3e
       0.08047548 -0.0353166 0.044350293 0.15095572
000110 97 92 01 3e d7 28 41 3d cf 70 4f 3e a4 a7 68 3d
       0.12653576 0.04715809 0.20257877 0.0568005
000120 84 da ab be 05 15 ee 3c 51 bd 7d be 1b 45 de 3d
       -0.33565152 0.029062757 -0.2477925 0.108530246
000130 9c c4 1b be 54 01 a1 3d e5 d8 01 bd 07 e9 19 3d
       -0.1521172 0.078615814 -0.031700987 0.037575748
000140 60 b4 29 3e a0 31 1a 3e c4 2b d9 bd e5 ab 32 be
       0.16572714 0.15057993 -0.10604051 -0.17448385
000150 d1 9a 66 be cf 94 3e bd f2 f3 b8 bd 5f ab c4 3c
       -0.22519995 -0.046528634 -0.09030904 0.024007497
000160 4d f1 f7 bc 28 bb cc bd bc 12 cc 3c 94 d4 89 3d
       -0.030266428 -0.09996635 0.024911277 0.06729999
000170 99 39 27 bd 5f 0d 8b 3d 0f d5 88 bd c1 0e 3b 3e
       -0.040826414 0.0678966 -0.06681263 0.18267347
000180 50 f9 2a 3f d6 96 19 3f 61 cd 9b be cb 40 20 3d
       0.6678667 0.5999578 -0.3043013 0.03912429
000190 0d f6 91 be dc 02 f3 be b4 81 a0 be 40 84 15 bf
       -0.28508034 -0.4746312 -0.31348956 -0.5840492
0001a0 13 c9 cd 3e 7b ec 8c 3e 71 2f 0a be 4e 04 f7 3e
       0.4019247 0.2752417 -0.1349466 0.48245472
0001b0 e7 23 38 be 88 9d 25 be ab c9 9f bf 41 43 82 3d
       -0.17982446 -0.16173375 -1.2483419 0.06360484
0001c0 8f 41 2b 3d ae f0 50 be 6c 9d 35 3e eb 55 81 bf
       0.04181057 -0.20404312 0.17735833 -1.0104345
0001d0 87 04 95 be 59 84 d5 3e 32 65 10 3f 70 73 25 3d
       -0.29105017 0.41702536 0.5640441 0.040393293
0001e0 bc c1 11 bf 56 23 10 3f ba 0a 68 bf 07 bf 2e 3f
       -0.5693624 0.5630392 -0.9064137 0.68260235
0001f0 68 23 c1 3f 00 ef 7c 3f a0 32 bc 3e 8c 26 80 bf
       1.508893 0.98802185 0.36757374 -1.0011764
000200 74 a0 05 3e ed a9 e1 bf 33 c2 0e bf 2d fa d8 bd
       0.1304949 -1.7629982 -0.55765074 -0.10594592
000210 79 d7 4d 3f 19 c8 93 bd fb 4b fb be 20 dd 8d 3e
       0.8040691 -0.072159 -0.49081406 0.27707767
000220 e2 12 5e bf dd 25 f3 3e 57 ea 34 3e 22 c6 94 bc
       -0.8674756 0.47489825 0.17667519 -0.018160883
000230 a0 c8 ca 3f 5f d2 0c 3f 24 a4 c7 bf fd 13 96 bf
       1.5842476 0.550085 -1.5596967 -1.172485
000240 f2 51 d3 bc 27 4b ba be ae 6a 86 be 34 9d 7c 3f
       -0.02579591 -0.36385462 -0.26253265 0.9867737
000250 d1 47 ea 3e fe b2 e8 3e 2c 6f e1 bf b9 44 53 3d
       0.45757917 0.4544906 -1.7612052 0.05157921
000260 da 5b d3 be 08 fe 1a 3e 89 df b2 be db 1a 56 3e
       -0.41281015 0.15135968 -0.3493617 0.20908682
000270 d4 53 27 c0 fc f5 c9 bc 63 78 a4 bf 12 fd ab 3f
       -2.6144915 -0.024653427 -1.2849239 1.3436606
000280 91 16 eb 3d 7d 89 6e 3e 73 ed 28 be 6a ec 1e 3e
       0.114789136 0.23294635 -0.1649683 0.15519872
000290 18 08 4e be c8 17 38 be 82 e9 92 be 73 89 d1 bd
       -0.20120275 -0.17977822 -0.28693777 -0.102312945
0002a0 cc 9d 85 bd 47 8c 07 3e bb 1b 61 3e 28 77 df 3c
       -0.06524238 0.13237105 0.21983235 0.027278498
0002b0 97 ef e5 3e 7a ec 01 3d f7 0b 53 be 3e e5 93 3e
       0.44909355 0.031719662 -0.20610033 0.28885835
0002c0 08 ae 8d bd 01 af 50 3e 60 c4 40 bc 02 bb 9f bd
       -0.069179595 0.20379259 -0.011765569 -0.07799341
0002d0 5c 3d 8f be 81 b6 0e bd e9 8d 3c 3e 5f d9 ff bd
       -0.279765 -0.034842018 0.1841351 -0.12492632
0002e0 ff 34 67 be e9 7e 5a be 37 65 58 3e da 4b f3 3d
       -0.2257881 -0.21337475 0.2113236 0.11879702
0002f0 02 55 7e be d5 b1 c6 3d b7 73 0f be 56 77 56 3e
       -0.24837115 0.097018875 -0.14008985 0.2094396
000300 68 ff c9 be 7a 6f 98 be 64 28 5e 3e b7 fc b7 3e
       -0.39452672 -0.2977255 0.21695095 0.35934994
000310 11 9c c4 3e 31 99 08 bf 67 88 ef 3e 20 d8 96 3d
       0.3840032 -0.5335875 0.46783754 0.07365441
000320 78 26 f9 3e 22 a3 a2 3d 9d ff a8 be 54 f3 2b 3e
       0.48662162 0.07941271 -0.33007517 0.16792041
000330 13 5f df 3e bf e9 03 bd 4c 33 62 3e ee 55 14 3d
       0.43627223 -0.03220534 0.2208988 0.03621476
000340 3b ff 60 3e 60 3f a7 be e2 d6 35 be 35 95 e8 bd
       0.21972363 -0.3266554 -0.17757753 -0.11356584
000350 fe 42 c0 bc e3 54 81 bb eb b7 5f bd ac 0a 2e 3e
       -0.023469444 -0.003946887 -0.054618757 0.16996258
000360 ae 49 ce bd eb 4d d2 bd a4 0e 9e 3e 15 af 67 be
       -0.10072647 -0.10268768 0.30870545 -0.22625382
000370 15 5a c9 bd 02 f3 96 be 2f d8 0e 3f 26 82 d1 bd
       -0.09831635 -0.29482275 0.5579862 -0.10229902
000380 25 ae 3e bd 2c 09 78 be 0c 24 82 bd 57 fb 2d be
       -0.046552796 -0.24222249 -0.06354532 -0.1699041
000390 47 bb a6 be c7 f8 09 3d cd 83 8b bd f4 ff c0 3c
       -0.32564756 0.03368452 -0.068122484 0.023559548
0003a0 b5 02 0d bd 41 11 42 b6 87 29 80 be af 33 36 be
       -0.03442641 -2.8918296e-06 -0.25031683 -0.17793153
0003b0 9f 05 b6 3e b4 9b bc 3d 9b ac c8 3d e6 59 7d be
       0.35551164 0.092093855 0.09798547 -0.24741325
0003c0 21 bb 89 3d 50 9c 8f be 3f aa 17 be 3c 73 8b bc
       0.06725145 -0.28048944 -0.14811037 -0.017022721
0003d0 dc 24 05 3d f3 cc 12 be e7 63 db bd 55 4b 47 be
       0.032505855 -0.14335994 -0.10712414 -0.1946233
0003e0 53 50 88 3e e9 6d 28 be 2a b0 1b be ba e1 0b bd
       0.26623783 -0.16448177 -0.1520392 -0.034150817
0003f0 bf 44 66 3e 9f 1b d6 ba 5c f7 d0 bc ac 52 37 be
       0.22487162 -0.0016335136 -0.025508575 -0.1790263

sequential/dense/BiasAdd/ReadVariableOp:0 f4 [32]
000000 27 00 1a be 16 97 e5 3f 48 e6 94 3e 50 5e 44 3d
       -0.1503912 1.7936733 0.2908194 0.047941506
000010 41 b3 23 bf b7 2c 36 be 18 51 02 3f 79 e2 11 be
       -0.63945395 -0.17790495 0.5090499 -0.14246549
000020 5a 38 5c 3f 6b d1 80 be 3e cf 79 bd 6c dd b2 3c
       0.86023486 -0.25159773 -0.060988657 0.021834098
000030 7b e4 a3 bf cc 94 85 be 00 84 9a 3f 9e bd 7d 3f
       -1.2804102 -0.26090086 1.2071533 0.9911746
000040 f3 9b 21 be 0f 12 69 3e 00 00 00 00 be 13 60 bf
       -0.15782146 0.22760795 0.0 -0.87530124
000050 a9 89 94 be 74 cd 07 bf 73 56 b0 3f 27 f1 f4 3c
       -0.29011276 -0.5304787 1.3776382 0.029900147
000060 ce 5a 35 3e 9f c3 42 be c5 86 14 3e c7 7d d6 3d
       0.1771042 -0.19019936 0.14504535 0.10473209
000070 26 ca 1f 40 f3 3e 84 3d de d6 5d 3f d4 7d 7c bf
       2.4967132 0.06457319 0.86655986 -0.986295
