models/tf_lite/model.tflite (tflite, 7488 bytes, 4 tensors)

dense_1/bias f4 [6]
-0.023752993 -0.02443212 -0.27202132 -0.57066417 -1.158132 1.6669737
00000000: a395 c2bc df25 c8bc 6146 8bbe 0c17 12bf
00000010: ab3d 94bf 655f d53f

dense/bias f4 [32]
-0.73633075 1.6161119 0.11843852 0.67708313 -0.040753473 -0.7966648 -0.14206722 -0.3002592
1.4686916 1.5216115 0.33380693 0.22838414 -0.37770522 1.0581247 0.6622175 -0.88090956
0.37429947 -0.27361944 -1.7327492 0.020632586 -0.60598135 0.30182108 -1.1450567 -0.11058487
0.8331205 0.7732259 -0.25729835 -0.6750332 -0.050225552 0.82383525 -1.49587 -1.0499414
00000000: 2c80 3cbf c1dc ce3f e58f f23d 5255 2d3f
00000010: 1ded 26bd 39f2 4bbf 127a 11be 93bb 99be
00000020: 16fe bb3f 2ac4 c23f bee8 aa3e 88dd 693e
00000030: 9462 c1be a170 873f 1687 293f 4a83 61bf
00000040: 2ea4 bf3e d917 8cbe baca ddbf ab05 a93c
00000050: 9821 1bbf 4b88 9a3e 3891 92bf 527a e2bd
00000060: 6347 553f 22f2 453f 9cbc 83be face 2cbf
00000070: 4fb9 4dbd dee6 523f ab78 bfbf 7b64 86bf

sequential/dense/MatMul f4 [32, 40]
0.11825996 -0.047356967 0.07225448 0.19466293 0.8772069 0.17937565 -0.2752445 -0.38860357
-1.0477053 -0.0018767512 0.033153336 0.3422458 -0.62326145 -0.30728754 -2.2468472 0.29058948
0.22687605 -0.037945516 -2.7417183 -2.5334837 -0.020109821 -0.085383244 -0.18202579 0.24290453
0.41521513 0.30934188 -0.055785216 -0.2101583 -5.374205 -0.07790757 -0.21792762 0.15083441
0.24126793 -1.0754482 0.53320104 0.82339436 -0.71464956 0.48130858 -0.11830755 1.0177705
-0.18330346 0.044378344 -0.14676961 -1.3829079 -1.5292928 0.12296837 0.2475935 0.056690805
0.35317183 -2.145664 -0.109252974 0.18004288 0.36783955 0.10539396 -0.4892484 -0.19882216
0.122347355 0.26414078 0.0431813 -1.579129 -0.027995355 0.20325947 0.09476903 -0.3604603
-1.197431 -0.5760444 -0.20122592 -0.47729763 0.12218958 -1.2917831 -0.29324055 0.3510502
0.14644475 1.8273612 0.86528665 -0.09496001 0.11465607 0.14562333 -1.5365463 -1.3857331
-0.11554 -0.092984535 -0.24681976 -0.056606654 -0.32459247 -0.27415234 -0.12827712 -0.23070692
0.15264657 0.094864205 0.14712843 0.26980498 0.22098583 0.17412865 -0.025882388 0.2692693
-0.11316999 -0.1410165 -0.09820325 0.07319633 -0.036997188 -0.096723594 0.15750077 -0.12791789
-0.36150753 -0.1633226 0.035036422 -0.023005532 0.0768256 -0.37716553 0.025831142 -0.15894233
0.23016645 0.08305565 0.05297275 0.071831524 -0.0582527 0.16587299 0.03787889 -0.0691328
0.16544461 0.06378727 -0.05365182 0.2868472 -0.66588724 -0.20703933 -0.1669342 -0.19082879
0.52450186 -0.118824914 -0.22024317 0.4553948 -0.05155873 -2.434863 1.0376723 -0.24504595
-0.03882685 0.0141550265 0.4364848 0.7446295 -0.0038077917 -0.28428128 -0.007118104 -0.15873331
0.5913483 0.013527368 -0.44137287 -0.36786678 0.5104176 0.15287158 -0.16901295 -0.23014493
0.5553314 2.2542226 -1.499584 0.14516467 1.4242711 0.011157116 0.013130017 -0.73674893
-0.1919161 0.008536589 -0.15349086 0.13052268 -0.10536739 -0.07661875 -0.08020978 -0.07750649
-0.007581823 0.018306125 -0.16455957 -0.19117312 -0.08537675 -0.23616356 -0.1045476 0.13083667
-0.05801622 -0.27322412 0.17731991 0.11578632 0.121866524 -0.07883124 0.14145306 -0.11033239
-0.036058594 -0.13080749 -0.2871688 0.0090785 0.21666282 -0.2096599 0.1487759 0.21943429
-0.040818937 0.124422066 -0.071542256 -0.022924105 -0.047190785 -0.010374143 -0.05642811 0.22641383
-0.12030856 -0.009453445 0.12321951 0.1977488 1.0017577 0.20049326 -0.15045191 -0.39101046
-0.37104487 0.54172516 0.13546544 0.6037465 -0.13121754 1.6187495 -0.41885167 0.07673012
0.15036272 0.37731677 -0.042749118 -0.25961483 0.026416965 0.07906865 0.094025895 -0.036169603
0.5758495 0.104466386 -0.21382035 0.12055562 -3.2046163 0.39429808 0.23365226 -0.22072463
-0.17461012 -1.7701734 0.2892096 -0.15369278 -0.70910007 -0.37863052 0.39912158 0.6498596
0.14409743 0.020751623 -0.044595543 -0.7721684 0.07686921 -0.07644661 -0.036649667 -0.12529898
2.509546 0.8938144 0.08876113 -0.22198243 0.1531801 5.6667967 -0.4387787 -0.18774001
00000000: 4732 f23d 61f9 41bd 28fa 933d b855 473e
00000010: a290 603f 40ae 373e d9ec 8cbe 0cf7 c6be
00000020: 351b 86bf 52fd f5ba cbcb 073d d73a af3e
00000030: 108e 1fbf cb54 9dbe 58cc 0fc0 25c8 943e
00000040: 3252 683e c26c 1bbd 5078 2fc0 9924 22c0
00000050: 5abd a4bc 69dd aebd f864 3abe f7bb 783e
00000060: 1497 d43e 0f62 9e3e 0a7f 64bd bd33 57be
00000070: 7df9 abc0 018e 9fbd 6b28 5fbe 5674 1a3e
00000080: f10e 773e 49a8 89bf dd7f 083f f9c9 523f
00000090: 46f3 36bf 146e f63e 3b4b f2bd 4e46 823f
000000a0: e7b3 3bbe 11c6 353d c64a 16be 2003 b1bf
000000b0: debf c3bf d7d6 fb3d 2789 7d3e 9e34 683d
000000c0: f0d2 b43e 8f52 09c0 06c0 dfbd 295d 383e
000000d0: 7755 bc3e cad8 d73d c47e fabe 0998 4bbe
000000e0: 4091 fa3d 763d 873e e0de 303d e620 cabf
000000f0: 8456 e5bc 4023 503e 4416 c23d 418e b8be
00000100: 6b45 99bf a577 13bf 2b0e 4ebe 5b60 f4be
00000110: 883e fa3d 2659 a5bf a023 96be dabc b33e
00000120: 9df5 153e f9e6 e93f 6d83 5d3f 657a c2bd
00000130: cdd0 ea3d 481e 153e 8dad c4bf b45f b1bf
00000140: 3ca0 ecbd ad6e bebd 52be 7cbe 61dc 67bd
00000150: fc30 a6be b25d 8cbe 145b 03be 6f3e 6cbe
00000160: 624f 1c3e 2a48 c23d d6a8 163e e123 8a3e
00000170: 1c4a 623e c84e 323e 4d07 d4bc aadd 893e
00000180: abc5 e7bd a166 10be c91e c9bd f5e7 953d
00000190: 5d8a 17bd 0517 c6bd e247 213e e8fc 02be
000001a0: 8417 b9be 0a3e 27be 5a82 0f3d 1976 bcbc
000001b0: bd56 9d3d d71b c1be d59b d33c c7c1 22be
000001c0: c1b0 6b3e 1519 aa3d f4f9 583d 681c 933d
000001d0: 629a 6ebd 9cda 293e e526 1b3d 7f95 8dbd
000001e0: 506a 293e e6a2 823d 03c2 5bbd a3dd 923e
000001f0: 9677 2abf 1e02 54be cdf0 2abe 9f68 43be
00000200: c145 063f 7a5a f3bd 6d87 61be 8229 e93e
00000210: 3f2f 53bd ccd4 1bc0 72d2 843f 53ed 7abe
00000220: e708 1fbd 7cea 673c f07a df3e 0aa0 3e3f
00000230: 258c 79bb 518d 91be fc3e e9bb fc8a 22be
00000240: 9a62 173f e5a1 5d3c a0fb e1be 0959 bcbe
00000250: baaa 023f 5e8a 1c3e bb11 2dbe 1dab 6bbe
00000260: 332a 0e3f 2f45 1040 5ef2 bfbf 0ca6 143e
00000270: 844e b63f 56cc 363c 481f 573c 949b 3cbf
00000280: a785 44be 0ddd 0b3c b52c 1dbe bda7 053e
00000290: dcca d7bd 4bea 9cbd 0645 a4bd b9bb 9ebd
000002a0: f170 f8bb baf6 953c 4e82 28be e3c2 43be
000002b0: 01da aebd dcd4 71be 0d1d d6bd 0cfa 053e
000002c0: 6aa2 6dbd 08e4 8bbe 5a93 353e 6121 ed3d
000002d0: 2895 f93d 4672 a1bd 12d9 103e f3f5 e1bd
000002e0: 2db2 13bd 66f2 05be ca07 93be fdbd 143c
000002f0: dcdc 5d3e 16b1 56be b658 183e 62b3 603e
00000300: c231 27bd ffd0 fe3d bf84 92bd 55cb bbbc
00000310: 204b 41bd 4ff8 29bc 2921 67bd 07d9 673e
00000320: 5664 f6bd 9fe2 1abc 835a fc3d a97e 4a3e
00000330: 9939 803f 1b4e 4d3e 1110 1abe 8632 c8be
00000340: 98f9 bdbe 80ae 0a3f 74b7 0a3e 218f 1a3f
00000350: e45d 06be 2f33 cf3f ba73 d6be ae24 9d3d
00000360: aff8 193e aa2f c13e b319 2fbd 3cec 84be
00000370: 6468 d83c bfee a13d a690 c03d 9426 14bd
00000380: df6a 133f 79f2 d53d b9f3 5abe dde5 f63d
00000390: 6f18 4dc0 70e1 c93e 8a42 6f3e a305 62be
000003a0: ffcc 32be 0b95 e2bf 4813 943e a461 1dbe
000003b0: 9587 35bf dcdb c1be aa59 cc3e 335d 263f
000003c0: 478e 133e 4fff a93c d1a9 36bd d4ac 45bf
000003d0: 9b6d 9d3d 0a90 9cbd f61d 16bd 604e 00be
000003e0: 679c 2040 05d1 643f 65c8 b53d 5d4f 63be
000003f0: 3edb 1c3e 6656 b540 9aa7 e0be eb3e 40be

sequential/dense_1/MatMul f4 [6, 32]
-0.032728914 -0.02062768 -0.34061822 0.10700055 0.23520187 -0.6864777 0.09460657 -0.5206587
0.07880312 -0.05565609 0.20825185 -0.08588097 -0.26138556 0.021441497 -0.07627688 0.21544684
0.15121314 -0.38827604 0.17353658 -0.14435557 -0.084966905 0.22811042 -0.07009495 -0.04505167
-0.15357886 0.12959763 -0.044218622 -0.32003424 0.27590623 -0.33571926 -0.76756334 -0.27690953
0.113945566 -0.31854385 0.295179 -0.07080473 0.006000474 0.0015217813 -0.1880189 0.09587654
-0.12494825 -0.25196442 0.049503654 -0.12069496 -0.124002926 0.12738252 0.15109742 -0.1331598
-0.3116959 -0.22944543 -0.017824534 0.29160294 -1.1798699 -0.0744648 0.054452814 -0.23274614
-0.23290539 0.021000057 0.36582237 0.029922869 0.15863834 -0.37098506 0.24507241 0.041257825
0.059827574 -0.28592965 -0.21667449 0.14413324 -0.39008942 -0.45912206 -0.0121451635 -0.39788157
0.21981591 -0.04622837 0.08327005 0.09882602 -0.08142417 -0.2064853 -0.1942912 0.14685799
-0.39513513 0.19993433 0.044511452 -0.03315883 0.36897677 0.09159237 0.09520896 0.2033265
-0.40762272 0.023422938 0.2633102 -0.01158921 0.121701695 -0.5025398 -0.05490941 -0.013301019
-0.21142268 -0.1140028 0.058411684 -0.07446578 0.36078125 0.015820397 -0.16177246 -0.054971423
0.13552548 -0.2028504 -0.21863088 -0.36327687 -0.15795851 -0.22106038 -0.047491785 -0.053480417
0.414846 0.035520107 0.10108075 0.2940988 -0.34970868 0.11738262 0.23611626 -0.3471201
-0.12641476 0.30436614 0.21793649 -0.016978191 -0.29746377 -0.20088233 -0.3653498 0.24118134
-0.060926642 -0.31490543 0.33512178 0.076958284 0.2769015 -0.056527387 0.14810377 -0.2799535
-0.05306843 0.009024136 -0.12496083 -0.10045689 0.18379527 0.20892064 0.18840887 0.23220463
-0.34913442 -0.25670204 -0.17400204 -0.18100631 0.3730106 -0.25970262 0.041490104 -0.27181748
-0.19640471 0.06464121 -0.13088416 -0.054905843 -0.09425165 -0.23744091 0.03425634 0.13450007
-0.17695312 0.43500468 0.34308752 0.16899794 -0.098141335 -0.09554282 0.09286689 0.29124424
0.3586564 0.28214332 -0.061833072 0.27219003 -0.1947628 0.3579801 0.23500271 0.052921593
0.16253848 -0.0392205 -0.30465627 -0.09317167 -0.016343178 0.5523988 -0.22872972 -0.3509641
0.10019623 0.20523281 0.061518684 -0.061698865 -0.34987834 0.0842126 -0.039937425 -0.20504187
00000000: c10e 06bd 61fb a8bc 8365 aebe 1b23 db3d
00000010: c2d8 703e 01bd 2fbf 17c1 c13d e349 05bf
00000020: 8863 a13d a4f7 63bd f93f 553e 5de2 afbd
00000030: 54d4 85be 14a6 af3c 0e37 9cbd 199e 5c3e
00000040: 9ed7 1a3e 1ecc c6be 93b3 313e f2d1 13be
00000050: 2103 aebd c795 693e f18d 8fbd 1a88 38bd
00000060: c743 1dbe 3eb5 043e 961e 35bd 87db a3be
00000070: 9543 8d3e 65e3 abbe 087f 44bf 16c7 8dbe
00000080: 4b5c e93d 2e18 a3be b421 973e 1202 91bd
00000090: a09f c43b 8276 c73a 0788 40be eb5a c43d
000000a0: dee4 ffbd 7b01 81be 58c4 4a3d eb2e f7bd
000000b0: 3ff5 fdbd 9070 023e 48b9 1a3e 0b5b 08be
000000c0: 9b96 9fbe bef3 6abe c204 92bc fb4c 953e
000000d0: fa05 97bf 0081 98bd ea09 5f3d 0155 6ebe
000000e0: c07e 6ebe 5008 ac3c 124d bb3e ce20 f53c
000000f0: 1772 223e c1f1 bdbe 43f4 7a3e f7fd 283d
00000100: c20d 753d 5f65 92be ebdf 5dbe aa97 133e
00000110: cdb9 c7be 0c12 ebbe 82fc 46bc 22b7 cbbe
00000120: 6c17 613e f659 3dbd 7d89 aa3d 4c65 ca3d
00000130: b7c1 a6bd e270 53be 46f4 46be f161 163e
00000140: 274f cabe 96bb 4c3e a451 363d 8ed1 07bd
00000150: 86ea bc3e c894 bb3d eafc c23d d234 503e
00000160: edb3 d0be 76e1 bf3c 98d0 863e abe0 3dbc
00000170: bd3e f93d 73a6 00bf b1e8 60bd 84ec 59bc
00000180: 307f 58be 4d7a e9bd 1741 6f3d 8481 98bd
00000190: 52b8 b83e c799 813c aea7 25be b729 61bd
000001a0: 31c7 0a3e 04b8 4fbe c6e0 5fbe 6dff b9be
000001b0: e0bf 21be a75d 62be bf86 42bd 480e 5bbd
000001c0: b266 d43e 887d 113d 6d03 cf3d 1e94 963e
000001d0: 040d b3be 4d66 f03d 76c8 713e bab9 b1be
000001e0: df72 01be e1d5 9b3e be2a 5f3e d915 8bbc
000001f0: 2c4d 98be 19b4 4dbe 210f bbbe 3ef8 763e
00000200: 378e 79bd 493b a1be 1595 ab3e 4e9c 9d3d
00000210: 09c6 8d3e 4389 67bd 84a8 173e 1156 8fbe
00000220: 485e 59bd f8d9 133c 77eb ffbd 58bc cdbd
00000230: d434 3c3e 4bef 553e 41ee 403e 0dc7 6d3e
00000240: bfc1 b2be 736e 83be 972d 32be b859 39be
00000250: 3ffb be3e bef7 84be 87f1 293d a92b 8bbe
00000260: 511e 49be 9c62 843d 7f06 06be f3e4 60bd
00000270: 0207 c1bd b623 73be 6050 0c3d 63ba 093e
00000280: 3333 35be efb8 de3e 2ba9 af3e cc0d 2d3e
00000290: 53fe c8bd f4ab c3bd ff30 be3d f71d 953e
000002a0: d0a1 b73e 1775 903e ad44 7dbd 7e5c 8b3e
000002b0: e66f 47be 2b49 b73e 8da4 703e 50c4 583d
000002c0: 7d70 263e ada5 20bd e8fb 9bbe cad0 bebd
000002d0: 21e2 85bc 026a 0d3f 2038 6abe 91b1 b3be
000002e0: ae33 cd3d 8d28 523e 04fb 7b3d f3b7 7cbd
000002f0: 4123 b3be a877 ac3d 6d95 23bd 7ff6 51be
