models/model.onnx (onnx, 7799 bytes, 4 tensors)

StatefulPartitionedCall/sequential_2/dense_5/MatMul/ReadVariableOp:0 f4 [32, 6]
0	0xbcef6758	-0.029224083
1	0x3d23f80e	0.040031485
2	0xbeb8f5ce	-0.36125034
3	0x3dfe5857	0.12419193
4	0xbd44297a	-0.047891118
5	0xbe484328	-0.19556868
6	0xbd8805a0	-0.06641698
7	0xbdc53050	-0.096283555
8	0x3e06e10a	0.13171783
9	0x3e44af74	0.19207555
10	0xbe5eaf57	-0.21746574
11	0xbd346673	-0.044043016
12	0x3e1ba883	0.15201001
13	0xbe442855	-0.1915601
14	0xbe5bef0c	-0.21477908
15	0x3e7b4ec3	0.24541764
16	0x3e7ea74d	0.24868508
17	0x3e5a99e0	0.21347761
18	0x3e876f29	0.26451996
19	0x3e1592c6	0.14606771
20	0x3e8dee3e	0.27720827
21	0xbe561236	-0.20905384
22	0x3e8f8c56	0.28036755
23	0x3e6c8ce5	0.23100622
24	0xbea3a783	-0.3196374
25	0x3ed9db06	0.42549914
26	0xbe13af3e	-0.14422318
27	0xbd89b18a	-0.06723316
28	0x3e49a4df	0.196918
29	0x3cd78324	0.02630765
30	0xbd1588fb	-0.036507588
31	0x3e5202b0	0.20508838
32	0xbeba1c13	-0.36349544
33	0x3db62034	0.08892861
34	0x3e1630f0	0.14667106
35	0xbe700038	-0.23437583
36	0xbd2fa107	-0.042878177
37	0xbe79614c	-0.24353522
38	0xbe131bde	-0.14366099
39	0xbeb83416	-0.35977238
40	0x3d612b89	0.05497316
41	0x3bb0090c	0.005372172
42	0xbec4ac3e	-0.3841266
43	0x3eb0b45b	0.345126
44	0x3e7aec46	0.24504194
45	0xbe83b647	-0.25725004
46	0xbe6982c5	-0.22803791
47	0xbe9a5e36	-0.30150002
48	0x3b3fb1c9	0.0029250255
49	0x3e943f9d	0.28954783
50	0x3e8a8b04	0.27059186
51	0x3eabb41f	0.3353586
52	0xbddafe8c	-0.10693082
53	0xbe6051e4	-0.21906239
54	0x3e8394bc	0.25699413
55	0x3e5e25f3	0.21694164
56	0x3f03ad10	0.5143595
57	0x3e1715ae	0.14754364
58	0x3ea4f491	0.3221784
59	0x3d76b2a3	0.060228955
60	0x3e344b86	0.17606935
61	0xbdfb057f	-0.12256908
62	0xbeb5aa36	-0.35481423
63	0xbe08e4d1	-0.13368537
64	0xbcfb8959	-0.03070514
65	0xb9ce40bb	-0.0003933961
66	0x3dbdaa7c	0.09261033
67	0xbd905b8d	-0.07048712
68	0x3cf31614	0.029673614
69	0x3ce5573f	0.027995704
70	0xbde814d3	-0.11332097
71	0xbd1f2713	-0.038855623
72	0x3d90de60	0.07073665
73	0xbe1db0e4	-0.1539951
74	0xbe839b95	-0.25704637
75	0xbd9c78e4	-0.076402456
76	0x3dfa3477	0.12217038
77	0xbd18fb95	-0.037349302
78	0x3e8fc668	0.2808106
79	0x3e626d2f	0.22111963
80	0x3e547986	0.20749483
81	0x3dd56452	0.10419525
82	0xbe0f022b	-0.13965671
83	0xbe36c10e	-0.17847082
84	0xbb7877da	-0.0037913234
85	0x3d05b43f	0.0326426
86	0xbced376d	-0.028957093
87	0xbe3db09b	-0.18524401
88	0x3eb2e71b	0.34941944
89	0x3e47958a	0.19490638
90	0xbea5239e	-0.32253736
91	0x3d91d458	0.071205795
92	0x3d99e8fb	0.075151406
93	0x3e61347e	0.2199268
94	0xbdeb1fc6	-0.1148067
95	0x3d931063	0.0718086
96	0xbe1c3b4b	-0.15256993
97	0xbe1ca456	-0.15297064
98	0xbd5eb7be	-0.05437445
99	0x3d739fa5	0.05947842
100	0xbe115e7a	-0.14196196
101	0x3d9e5966	0.07731895
102	0xbeae6cee	-0.34067482
103	0xbe110ef0	-0.14165854
104	0x3e39ff3f	0.18163775
105	0x3ea3d2f7	0.3199689
106	0x3be50d82	0.0069901356
107	0x3ddcea31	0.10786856
108	0x3dd8d3df	0.10587286
109	0x3ec19e17	0.37815925
110	0x3e2cfb68	0.16892779
111	0x3c8b51e8	0.01700683
112	0xbe59a976	-0.2125605
113	0x3db47d53	0.08812966
114	0x3e996c5e	0.2996549
115	0x3e4bcfe6	0.19903526
116	0x3d807497	0.06272238
117	0xbdfff889	-0.12498576
118	0x3e6c3832	0.23068312
119	0x3ed927a5	0.4241306
120	0xbe4d52e5	-0.20051153
121	0x3ebab360	0.36464977
122	0x3dd7d144	0.10537961
123	0x3e828460	0.2549162
124	0x3de1c4de	0.110238776
125	0x3e49747b	0.1967334
126	0x3e695325	0.22785623
127	0xbe9bdc2c	-0.30441415
128	0x3e84dd6f	0.2595019
129	0x3df45256	0.11929767
130	0xbba3b13a	-0.0049954923
131	0x3ddc5e11	0.10760129
132	0xbd6a0395	-0.057132322
133	0x3ebaebab	0.36507925
134	0xbda8de25	-0.08245496
135	0xbdb317f3	-0.08744802
136	0x3e6c82d5	0.23096783
137	0x3eaff639	0.3436754
138	0xbd0c5da1	-0.03426898
139	0x398cb110	0.00026834803
140	0x3e3c0d10	0.18364358
141	0xbe7cb8df	-0.24679898
142	0x3e7db9da	0.24777928
143	0x3e5fa10e	0.21838781
144	0x3e750d1a	0.23930779
145	0x3d466188	0.048432857
146	0x3e684bcc	0.22685164
147	0xbe25d9c9	-0.1619636
148	0xbd86a7a4	-0.06574944
149	0x3db03770	0.08604324
150	0x3d101036	0.03517171
151	0xbdcad83a	-0.09904523
152	0xbe2d0c08	-0.16899121
153	0x3e997a7e	0.29976267
154	0x3d6099b4	0.054834083
155	0x3e9af6f8	0.30266547
156	0xbdb6922d	-0.089145996
157	0xbe27354e	-0.16328928
158	0xbc3d9e5f	-0.011573403
159	0x3e5fd62d	0.21859045
160	0x3e35bd6c	0.1774804
161	0x3d859e71	0.06524361
162	0xbe8045f8	-0.25053382
163	0x3e8b5f19	0.2722099
164	0xbd38c49e	-0.045109384
165	0x3e2b66e3	0.16738467
166	0xbe3a244c	-0.18177909
167	0xbe4e35a3	-0.20137648
168	0xbead867e	-0.33891672
169	0x3e8ec753	0.27886447
170	0x3cd0aa6a	0.025471885
171	0xbeecdf64	-0.46264184
172	0x3d7af5c8	0.06126955
173	0x3bcc4f6f	0.006235055
174	0x3c2e5e8a	0.010642657
175	0xbab3c414	-0.0013715052
176	0xbe1c86d0	-0.15285802
177	0x3c644cc6	0.01393432
178	0x3ddbf4f0	0.107400775
179	0x3e8cfd90	0.27537203
180	0x3dca9751	0.098921426
181	0xbc80806f	-0.015686242
182	0x3e606190	0.21912217
183	0x3e443795	0.19161828
184	0x3e070799	0.13186492
185	0x3f2d51d6	0.67702997
186	0x3dfb661c	0.12275335
187	0x3d854f18	0.065092266
188	0xbe8bc997	-0.27302238
189	0xbe31ff5e	-0.17382571
190	0x3eb1f0e2	0.34754092
191	0x3ef2bd3d	0.47410002

StatefulPartitionedCall/sequential_2/dense_5/BiasAdd/ReadVariableOp:0 f4 [6]
0	0x3d0ae8c9	0.033913407
1	0x3e802266	0.25026244
2	0x3d002028	0.031280667
3	0xbeebdd30	-0.4606719
4	0xbf92d04f	-1.1469821
5	0x3fb4f538	1.4137335

StatefulPartitionedCall/sequential_2/dense_4/MatMul/ReadVariableOp:0 f4 [40, 32]
0	0x3d7aa5df	0.061193343
1	0xbd412576	-0.047154866
2	0xbd26b7cc	-0.040702626
3	0x3e3c9734	0.18417054
4	0xbdffe59c	-0.124949664
5	0xbe83b7c3	-0.25726137
6	0xbe3745bc	-0.17897695
7	0xbe98a5f9	-0.29814127
8	0x3e152d90	0.14568162
9	0x3dc15b78	0.094412744
10	0x3e164d68	0.14677966
11	0xbdd673fd	-0.10471342
12	0xbe512bfd	-0.20426936
13	0x3dd0ad03	0.10189249
14	0xbe97b963	-0.29633626
15	0xbd89ca64	-0.06728056
16	0xbd9a780a	-0.07542427
17	0xbe675aeb	-0.22593276
18	0xbe45566e	-0.19271252
19	0xbe988a60	-0.29793072
20	0x3e1380e1	0.14404632
21	0xbde0498e	-0.109515294
22	0xbdbaf6fd	-0.091291405
23	0xbc905bf4	-0.017621972
24	0xbdc47563	-0.09592702
25	0x3e38f8ae	0.18063614
26	0x3e2aeee6	0.16692695
27	0xbdccee33	-0.100063704
28	0xbd6664d7	-0.056248512
29	0x3ddc692e	0.10762249
30	0x3da96878	0.08271879
31	0xbe465ef2	-0.19372156
32	0xbe6257bb	-0.22103779
33	0xbe0e3e93	-0.13891058
34	0x3d011932	0.03151817
35	0x3df138a7	0.11778384
36	0x3d9ba34a	0.07599504
37	0xbe5da0d1	-0.21643378
38	0x3e4b8be4	0.19877583
39	0x3c0393e8	0.008030869
40	0x3d30543f	0.043049093
41	0x3e3b5b6d	0.18296595
42	0x3d0ca045	0.034332532
43	0x3e083c33	0.13304214
44	0xbd087474	-0.033314183
45	0xbd9eb870	-0.077500224
46	0x3c177832	0.009244965
47	0x3c29abd0	0.010355905
48	0xbe90eac7	-0.2830412
49	0x3d9e9722	0.0774367
50	0xbdf46e23	-0.119350694
51	0x3da988d1	0.08278049
52	0xbb7ebc5c	-0.0038869595
53	0xbd7cddea	-0.06173507
54	0x3e18cfb5	0.14922984
55	0xbccce599	-0.025011824
56	0x3dcfd214	0.10147491
57	0x3e35a35c	0.17738098
58	0xbdde09cf	-0.108417146
59	0xbdb66007	-0.089050345
60	0xbdf9348f	-0.12168228
61	0xbcd13222	-0.0255366
62	0xbe3fb27f	-0.18720435
63	0xbe12a90b	-0.14322297
64	0xbdc3ad58	-0.09554547
65	0xbe7f0eb9	-0.2490796
66	0x3cf26fb9	0.02959429
67	0xbe997fcd	-0.29980317
68	0x3d454d67	0.04816952
69	0xbe96ca37	-0.29451153
70	0xbe052bdb	-0.13005011
71	0xbe1b1994	-0.15146476
72	0xbe07a893	-0.132479
73	0xbe384806	-0.17996225
74	0xbd958e2b	-0.07302507
75	0x3e28c968	0.1648308
76	0xbe7d1b5f	-0.24717472
77	0x3dbe9512	0.09305777
78	0xbe9277f7	-0.2860715
79	0xbcc29622	-0.02375323
80	0x3e3f9fe3	0.18713336
81	0x3d3765ea	0.044774927
82	0x3e559601	0.20858003
83	0xbe01d184	-0.1267758
84	0xbd2adc42	-0.04171396
85	0x3d879e18	0.06621951
86	0xbdc891b7	-0.09793418
87	0x3e4ed83f	0.20199679
88	0xbe0ab9b1	-0.13547398
89	0xbe3908b0	-0.1806972
90	0xbcda8e36	-0.02667914
91	0xbcb54f71	-0.022132607
92	0xbd18df45	-0.0373223
93	0x3d0e4359	0.034732196
94	0xbe271707	-0.16317378
95	0x3db4f5f7	0.088359766
96	0x3ea645ee	0.32475227
97	0x3ef47ce8	0.47751546
98	0xbf27a829	-0.6549097
99	0x3f141fa3	0.57860774
100	0xbe1f6bf5	-0.15568526
101	0xbe0e7b2f	-0.13914178
102	0xbe5412c6	-0.20710286
103	0x3dbe785c	0.093003005
104	0xbec792e4	-0.38979256
105	0xbea026c7	-0.31279585
106	0xbe9a7256	-0.30165356
107	0x3f4b98b7	0.795299
108	0xbc2ca92f	-0.010538383
109	0x3eaf570a	0.34246093
110	0x3ec1919d	0.37806407
111	0x3df13207	0.1177712
112	0xbe2ccbcc	-0.16874617
113	0xbe2996b4	-0.16561395
114	0x3f2bce2d	0.67111474
115	0xbed2eb1e	-0.41195005
116	0x3f0402bc	0.5156667
117	0xbe850e94	-0.25987685
118	0xbea6d014	-0.32580626
119	0xbdb55d4d	-0.08855686
120	0x3e3ca2b6	0.18421444
121	0xbe517927	-0.20456372
122	0xbf94faa9	-1.1638995
123	0x3f363b1f	0.7118396
124	0x3ed41aac	0.414266
125	0x3d643ebd	0.055723894
126	0xbf8bb0f9	-1.0913383
127	0x3fbbf202	1.468323
128	0x3ed00739	0.4063051
129	0xbec21168	-0.37903905
130	0x3e333e63	0.17504267
131	0xbebd6961	-0.3699446
132	0x3eda328c	0.4261669
133	0x3e920bb3	0.2852455
134	0x3f54e091	0.8315516
135	0xbe05230c	-0.1300165
136	0x3f83ab2e	1.0286615
137	0x3ef89afd	0.48555747
138	0x3e95586d	0.29169026
139	0xbf9bcb82	-1.2171481
140	0xbcaad320	-0.020852625
141	0x3f048d5e	0.5177821
142	0x3f07631b	0.528856
143	0xbfb4dc57	-1.4129742
144	0xbe1e3f6b	-0.1545388
145	0x3ef35d82	0.47532278
146	0xbf04e816	-0.51916635
147	0xbed6721b	-0.4188393
148	0xbf289324	-0.6584952
149	0xbc495f3b	-0.012290771
150	0x3bb86a4a	0.005627905
151	0x3c9319ef	0.017956702
152	0xbf2bf1fc	-0.67166114
153	0xbf24eb73	-0.64421767
154	0x3fa85469	1.315076
155	0x3d696a90	0.05698639
156	0x3f9fafaf	1.2475489
157	0xbf49fc36	-0.7890047
158	0xbfcce360	-1.6006889
159	0xc00aaaa7	-2.1666658
160	0xbea19a90	-0.31563234
161	0x3d426555	0.04745992
162	0x3de4eeae	0.11178337
163	0x3dc71fdc	0.097228736
164	0x3c0a2c1f	0.008433371
165	0xbcbf2b80	-0.023336172
166	0x3d2d1b3e	0.04226231
167	0xbe2f12d1	-0.17097022
168	0x3e1427ce	0.1446831
169	0xbe80e4fd	-0.25174704
170	0x3e4c3e45	0.19945629
171	0xbdd4958d	-0.10380087
172	0x3e144fd5	0.14483579
173	0xbe348371	-0.17628266
174	0x3ea86a4c	0.32893598
175	0xbd1a99a1	-0.03774417
176	0x3e45a109	0.19299711
177	0xbebb9f90	-0.36645174
178	0xbe3360e4	-0.1751743
179	0x3e4f5d84	0.20250517
180	0x3a9d992e	0.00120238
181	0x3e5c9906	0.21542749
182	0x3e966136	0.2937104
183	0xbe8de158	-0.27710986
184	0xbdfb37c2	-0.12266494
185	0xbe842c87	-0.25815222
186	0xbde0e2a5	-0.10980729
187	0x3ea7e1b4	0.32789385
188	0x3e3869cb	0.18009107
189	0xbe47a9e2	-0.19498399
190	0x3e3c1028	0.18365538
191	0xbe1f96c1	-0.15584852
192	0x3e55e771	0.20889069
193	0xbdcad4ab	-0.099038444
194	0x3e8c702a	0.27429324
195	0xbd804faf	-0.062651984
196	0xbe271861	-0.16317894
197	0xbdd5f4d2	-0.104470864
198	0xbe9c1bde	-0.3049001
199	0xbe908023	-0.2822276
200	0x3ca09c17	0.01960568
201	0x3e153b9e	0.14573523
202	0xbda53a46	-0.080677554
203	0xbdc65471	-0.09684075
204	0xbe0201a3	-0.12695937
205	0xbeffd2a1	-0.49965385
206	0x3ef1246a	0.47098094
207	0x3e9098a7	0.28241464
208	0x3e22659c	0.15859073
209	0x3c0e394d	0.008680654
210	0xbeddaa6f	-0.43294093
211	0xbe148fbb	-0.14507954
212	0x3dbf2637	0.09333461
213	0xbe18d9aa	-0.14926782
214	0xbda0763f	-0.07835054
215	0x3d546cac	0.05186145
216	0x3ee0d25e	0.43910497
217	0x3ea84b47	0.32869932
218	0x3e621d83	0.2208157
219	0x3d47af68	0.048751265
220	0x3e8db959	0.27680472
221	0xbdafd1aa	-0.08584912
222	0xbe0dee0a	-0.13860336
223	0xbec5c893	-0.38629588
224	0x3e2d9e70	0.1695497
225	0xbdd3bf55	-0.10339228
226	0x3d9e7955	0.07737986
227	0x3e871f3a	0.2639101
228	0x3d3c8de0	0.04603374
229	0x3e33fb98	0.17576444
230	0xbece26e6	-0.40264052
231	0x3e0373d6	0.12837157
232	0x3d83a924	0.064287454
233	0x3c47c965	0.012194012
234	0xbdc2724c	-0.09494457
235	0xbe5ec34d	-0.21754189
236	0x3d839717	0.064253025
237	0x3bb9fa34	0.0056755785
238	0x3e3d6f59	0.18499507
239	0xbd7d9b4c	-0.06191568
240	0xbe9b24ee	-0.30301613
241	0xbe0d2de8	-0.13787043
242	0x3e5dacb0	0.21647906
243	0x3e3c7379	0.18403424
244	0xbe0cddda	-0.13756505
245	0x3e2938ec	0.1652562
246	0xbd5ec0d3	-0.05438311
247	0xbe865778	-0.26238608
248	0x3e3ad9b2	0.18247107
249	0x3e4dfa82	0.20115092
250	0x3d6764ec	0.05649273
251	0x3cd84e0c	0.026404403
252	0x3e2186b6	0.15774044
253	0x3a8d25e2	0.0010768736
254	0xbd8fe8db	-0.070268355
255	0xbe35d5e1	-0.1775737

StatefulPartitionedCall/sequential_2/dense_4/BiasAdd/ReadVariableOp:0 f4 [32]
0	0xbf0e91a3	-0.55690974
1	0x3e9f1030	0.31067038
2	0xbe9e4bba	-0.3091715
3	0x3e1efea5	0.15526827
4	0xbf0419bd	-0.51601774
5	0xbe96ccf1	-0.29453233
6	0xbf0d45b3	-0.5518448
7	0xbd3af4b3	-0.04564352
8	0xbf2d153f	-0.67610544
9	0xbe49647b	-0.19667237
10	0xbd7ce81d	-0.061744798
11	0x3f71879b	0.9434754
12	0xbcbf4829	-0.023349838
13	0xbe412de4	-0.18865162
14	0xbe97fd33	-0.29685363
15	0x3f7232dc	0.94608855
16	0x3e0869fb	0.13321678
17	0xbe829e4b	-0.25511393
18	0x3f09f72c	0.5389278
19	0x3f0909f2	0.535308
20	0x3f2bd1df	0.6711711
21	0xbd0d98ca	-0.03456954
22	0xbe6788ed	-0.22610827
23	0x3e4970af	0.19671892
24	0x3f3a12c0	0.7268486
25	0x3e8fde03	0.2809907
26	0xbf836bec	-1.026731
27	0x3e86eefb	0.26354203
28	0xbf65a241	-0.89700705
29	0x3f51a6f8	0.818954
30	0x3fceeb1e	1.6165502
31	0x3ff9b466	1.9508178
