models/sequential_fixed_input_spec.onnx (onnx, 7052 bytes, 4 tensors)

sequential_1/dense_3/MatMul/ReadVariableOp:0 f4 [32, 6]
0	0xbeaade26	-0.3337261
1	0xbe7cf62f	-0.24703287
2	0x3cf21df4	0.029555298
3	0x3d12118b	0.03566126
4	0xbe2516ba	-0.16121951
5	0x3e91066b	0.2832521
6	0x3b12128e	0.0022288891
7	0x3ec71fa3	0.38891324
8	0x3d056bb8	0.03257343
9	0xbe34bf03	-0.1765099
10	0xbe687f26	-0.22704753
11	0xbea7117f	-0.32630536
12	0x3d89343b	0.06699415
13	0xbe0b248c	-0.1358816
14	0xbdad889b	-0.08473321
15	0x3e951f7d	0.29125586
16	0xbcf2fa27	-0.029660298
17	0x3e54f615	0.20796998
18	0x3e7dabc6	0.24772558
19	0xbe2e7123	-0.17035346
20	0xbda86fc3	-0.08224442
21	0x3e687468	0.22700655
22	0x3d236a21	0.039896134
23	0xbe81656d	-0.25272694
24	0x3e4db897	0.20089947
25	0xbe8f5052	-0.27990967
26	0x3e645905	0.22299583
27	0xbe7d91bf	-0.24762629
28	0x3cb81e47	0.022475375
29	0xbce22d72	-0.02760956
30	0xbe38113b	-0.17975323
31	0xbe78bcd0	-0.24290776
32	0xbd3c0bf5	-0.04590984
33	0x3c5df930	0.01354818
34	0x3e21e889	0.15811361
35	0x3e3e8514	0.18605453
36	0x3e70b801	0.23507692
37	0x3db89d2c	0.09014353
38	0xbea88704	-0.3291551
39	0xbe3cf78f	-0.18453811
40	0xbddbf8c7	-0.1074081
41	0x3e9c99a9	0.30585983
42	0xbe88c0bf	-0.26709554
43	0x3dc2d0f1	0.09512509
44	0x3e6d9e94	0.23205024
45	0x3e1218d5	0.14267285
46	0xbcaa24c1	-0.020769479
47	0x3d82182a	0.06352265
48	0xbe56d844	-0.20980936
49	0x3df94a21	0.12172342
50	0x3bc4d059	0.0060062823
51	0xbead64f0	-0.33866072
52	0xbd682051	-0.056671444
53	0x3e22c08f	0.15893768
54	0xbdd712ad	-0.10501609
55	0xbd63f859	-0.055656765
56	0xbe8ac6df	-0.27104852
57	0x3d9b53fb	0.075843774
58	0x3db1c5d3	0.0868031
59	0x3e7e8194	0.24854118
60	0xbbb44338	-0.005501177
61	0x3f1bf6d0	0.6092348
62	0x3e696e50	0.22795987
63	0xbdeb8d52	-0.11501564
64	0x3c922497	0.017839713
65	0xbe4f50b2	-0.20245627
66	0xbe901975	-0.28144422
67	0xbd56acbe	-0.052410834
68	0xbcc67daf	-0.024229852
69	0xbe3daf34	-0.18523866
70	0x3bc26267	0.0059321406
71	0x3e553d37	0.20824133
72	0x3e4119b8	0.18857467
73	0x3d2d12c9	0.042254243
74	0x3eb9380a	0.36175567
75	0x3d8cd335	0.06876222
76	0xbccf44b5	-0.025301317
77	0xbe662743	-0.22475915
78	0x3ccfc57c	0.025362723
79	0x3e669fe5	0.22521932
80	0x3e0043b8	0.12525833
81	0x3d743326	0.05961909
82	0x3d7ff7e6	0.062492274
83	0xbe8109e2	-0.25202852
84	0xbcfc20bc	-0.030777328
85	0xbe5d2f81	-0.21600153
86	0xbceda8f4	-0.029011227
87	0x3e3a5340	0.1819582
88	0xbe756599	-0.23964538
89	0xbdaea9a9	-0.08528454
90	0x3ea15142	0.31507307
91	0x3e78cc1e	0.24296615
92	0x3e66690b	0.22501008
93	0x3da12dd4	0.07870069
94	0x3e54e8e9	0.20791973
95	0x3e048486	0.12941179
96	0xbdbe88c6	-0.09303431
97	0x3dc37b07	0.0954495
98	0xbe4072f5	-0.18793853
99	0x3c0cb037	0.008586935
100	0xbe4f7ae7	-0.20261727
101	0xbe9205e5	-0.28520122
102	0x3c8527ee	0.016254392
103	0xbe6667a0	-0.22500467
104	0x3e36d499	0.17854537
105	0x3dc0c904	0.09413341
106	0x3e6bfcd4	0.23045665
107	0x3e1e3ec8	0.15453637
108	0x3eac786c	0.33685625
109	0xbeaec673	-0.3413578
110	0xbd09dcb8	-0.03365776
111	0xbd6a0373	-0.057132196
112	0x3e8597c0	0.2609234
113	0xbe975b60	-0.295619
114	0xbe87ad4e	-0.26499408
115	0xbd6aac5b	-0.057293277
116	0xbeb01129	-0.34388092
117	0x3d9e1d02	0.077203766
118	0xbdadd282	-0.08487417
119	0x3e1e0bf5	0.15434249
120	0xbe1d82e8	-0.15381968
121	0x3e840cdb	0.25791058
122	0x3deb3d56	0.11486308
123	0x3eabe682	0.335743
124	0xbcccc34d	-0.02499547
125	0x3e8de8b1	0.27716592
126	0xbe7704e7	-0.24122964
127	0x3da76d2a	0.08175118
128	0xbe222787	-0.15835391
129	0xbdc46dc8	-0.095912516
130	0x3e6c06b0	0.23049426
131	0xbe35160b	-0.1768419
132	0x3e4fed40	0.20305347
133	0xbe319f49	-0.17345919
134	0x3db1ac5c	0.08675453
135	0xbd389341	-0.045062307
136	0x39cadc28	0.00038692472
137	0xbd05d78f	-0.032676276
138	0xbccaa9a8	-0.024739102
139	0x3da5b293	0.08090701
140	0x3e648058	0.22314584
141	0x3e569790	0.20956254
142	0xbe6c0877	-0.23050104
143	0x3d141d0f	0.036160525
144	0xbe6bf115	-0.23041184
145	0xbe2646ed	-0.16237994
146	0xbea4e2a5	-0.32204166
147	0xbe9bbd8e	-0.30418056
148	0x3ce02fc3	0.027366525
149	0xbde898c6	-0.11357264
150	0xbd28aada	-0.04117856
151	0xbe1432eb	-0.14472549
152	0xbdc94b45	-0.0982881
153	0xbcc9ab0a	-0.02461769
154	0x3e0aff32	0.13573912
155	0xbe1ea35e	-0.15492007
156	0xbdc0c070	-0.094117045
157	0x3e8ec9d0	0.27888346
158	0x3e00e434	0.12587053
159	0x3c81f041	0.015861632
160	0x3ea8e78e	0.32989162
161	0x3e9f9fe0	0.31176662
162	0xbc31c381	-0.010849834
163	0xbcb6793e	-0.02227461
164	0x3e27bfc5	0.16381748
165	0x3d30e149	0.0431836
166	0xbcbb9525	-0.022898266
167	0x3e30136a	0.17194906
168	0x3ca12fef	0.019676177
169	0xbea24d2c	-0.31699502
170	0xbe167dba	-0.14696398
171	0xbdcbb782	-0.09947111
172	0xbc01ac9e	-0.00791469
173	0x3f1bd822	0.6087667
174	0x3d35a8c4	0.0443504
175	0xbe4fd846	-0.20297346
176	0xbd592495	-0.053013403
177	0xbdc62af7	-0.09676164
178	0xbcaaa604	-0.020831116
179	0xbe656f77	-0.22405802
180	0xbb7a6035	-0.0038204317
181	0x3ea29e63	0.31761464
182	0x3eab599d	0.33466807
183	0xbe29629d	-0.16541524
184	0xbd85a79d	-0.0652611
185	0xbe3b0990	-0.18265367
186	0xbd806cb8	-0.062707365
187	0x3e962c02	0.2933045
188	0xbe6d15bc	-0.23152822
189	0x3dae60a9	0.0851453
190	0xbe2d89a1	-0.16947033
191	0x3eb0c21d	0.34523097

sequential_1/dense_3/BiasAdd/ReadVariableOp:0 f4 [6]
0	0xbda69e23	-0.08135631
1	0xbe8db400	-0.27676392
2	0xbf03b6b5	-0.51450664
3	0xbf73c2cd	-0.9521912
4	0x3e148d63	0.1450706
5	0x3f7072b0	0.93925

sequential_1/dense_2/MatMul/ReadVariableOp:0 f4 [40, 32]
0	0xbe7ccc4a	-0.24687305
1	0x3e37350d	0.17891331
2	0x3dbfdca4	0.09368256
3	0xbd58c74c	-0.05292444
4	0xbd1f649b	-0.038914304
5	0x3cab196c	0.020886146
6	0xbdf370b2	-0.11886729
7	0xbdbdd188	-0.092684805
8	0x3d5d14de	0.05397498
9	0x3d2dcecb	0.04243354
10	0x3c6eaba3	0.014567289
11	0x3d2c63d0	0.042087376
12	0x3d3799b2	0.04482431
13	0xbdd8e7ce	-0.10591088
14	0x3de78f60	0.113066435
15	0xbdbebb46	-0.09313063
16	0x3cc9d9c2	0.024639968
17	0x3de3ad85	0.111170806
18	0x3db9674f	0.09052908
19	0x3dfbd6d2	0.12296833
20	0xbd9ec449	-0.07752282
21	0x3da3105c	0.07962105
22	0x3e35f6d4	0.17769939
23	0x3c0a1fb2	0.008430408
24	0x3c7360a2	0.014854582
25	0xbe6080ae	-0.21924087
26	0x3dcb7106	0.09933667
27	0x3d908cbc	0.07058093
28	0x3db8b0fa	0.090181306
29	0x3e06f38f	0.13178848
30	0xbe15dda2	-0.14635327
31	0x3dde5da4	0.10857704
32	0xbe895943	-0.26825914
33	0x3d4ddb0b	0.050257724
34	0x3caf48f2	0.021397088
35	0xbe93f5d4	-0.2889849
36	0xbcf1e507	-0.029528154
37	0x3dadb0cf	0.08480989
38	0x3db04e5a	0.086086944
39	0x3da95e1e	0.082699046
40	0xbe770c45	-0.24125774
41	0xbde74dc9	-0.11294133
42	0x3cd1fe8a	0.025634069
43	0x3e3ca944	0.18423945
44	0x3e48909d	0.19586416
45	0x3c6b35ed	0.014356119
46	0x3d981577	0.07425969
47	0x3dcd5fcb	0.10028037
48	0xbe536163	-0.20642619
49	0x3dfee508	0.12446028
50	0x3e3ec9ff	0.18631743
51	0xbcffde1e	-0.031233843
52	0x3d56a43e	0.052402727
53	0x3d3997d4	0.04531081
54	0x3cfefaa6	0.031125378
55	0x3d8b2201	0.06793595
56	0x3e4e61db	0.20154516
57	0x3e77b7b6	0.24191174
58	0xbdd0f3a9	-0.102027245
59	0x3d6a4819	0.057197664
60	0xbd570a55	-0.052500088
61	0xbe3442ed	-0.17603655
62	0xbe267531	-0.16255642
63	0x3e721bdd	0.23643441
64	0xbd3ed942	-0.046593912
65	0xbe8c104f	-0.27356192
66	0x3d9266dd	0.07148526
67	0x3d235f6c	0.039885923
68	0x3da46541	0.08027125
69	0x3e145ef4	0.14489347
70	0x3e169aaf	0.14707445
71	0x3d41c347	0.04730537
72	0x3ea1bade	0.3158788
73	0x3e05c931	0.1306503
74	0x3dea6ddf	0.114467375
75	0xbe653b72	-0.22385958
76	0xbc1b4d9b	-0.009478952
77	0x3e5366d3	0.20644693
78	0xbe0969e2	-0.13419297
79	0x3d9edba8	0.0775674
80	0x3e377075	0.17913993
81	0xbe28b4ad	-0.16475172
82	0xbda20a02	-0.07912065
83	0xbe26e5aa	-0.16298547
84	0xbd23685a	-0.03989444
85	0xbd359859	-0.044334743
86	0xbe51fcb8	-0.20506561
87	0xbc15ee35	-0.009151031
88	0xbe4acec5	-0.19805439
89	0x3ccec1b3	0.025238847
90	0x3ddfb5f9	0.109233804
91	0x3e07de18	0.13268316
92	0xbe747853	-0.23874025
93	0x3cb9627d	0.02262997
94	0x3e6114a8	0.21980536
95	0x3c8eea21	0.017445626
96	0x3e062cbe	0.13103005
97	0x3f86f446	1.0543296
98	0xbf7e864a	-0.9942366
99	0x3e624975	0.22098334
100	0x3ecac5e4	0.39604104
101	0xbf04e392	-0.51909745
102	0x3f8bb1ca	1.0913632
103	0xbd9d2e91	-0.076748975
104	0xbf164932	-0.5870544
105	0xbe73af00	-0.23797226
106	0x3f279ffb	0.65478486
107	0xbe43dd98	-0.191275
108	0x3eb3d457	0.3512294
109	0xbd3acf97	-0.04560813
110	0xbf151542	-0.5823556
111	0x3de2a798	0.11067122
112	0x3ea3f290	0.32020998
113	0xbf65fc11	-0.8983775
114	0xbe8fcbfc	-0.28085315
115	0xbf05a5cc	-0.5220611
116	0xbeb98a99	-0.36238554
117	0x3ed2c248	0.4116385
118	0xbefec7c6	-0.4976179
119	0x3e83d16e	0.2574572
120	0xbe0f786f	-0.14010786
121	0xbf80e861	-1.0070916
122	0x3f384940	0.7198677
123	0xbd8658d1	-0.06559909
124	0xbf8e2306	-1.1104438
125	0x3e38293d	0.17984481
126	0xbe1652a4	-0.14679962
127	0x3ec93506	0.39298266
128	0xbe4f1e86	-0.20226488
129	0x3f6bf69c	0.9217317
130	0x3b6845bc	0.0035441956
131	0x3eca43f3	0.39504966
132	0xbe8d9e1b	-0.27659687
133	0xbec7ab92	-0.38998085
134	0xbfa1d510	-1.2643147
135	0x3f11fa57	0.57022613
136	0xbfd646de	-1.6740377
137	0xbf9caeff	-1.2240905
138	0xbe5f0f79	-0.21783246
139	0xbf237183	-0.6384508
140	0x3fb54173	1.4160599
141	0x3feed9fe	1.8660276
142	0x3f627dae	0.8847302
143	0x3ec94336	0.3930909
144	0xbd9b319f	-0.07577824
145	0xbed87994	-0.42280257
146	0x3f278e2d	0.6545132
147	0xbf425322	-0.759081
148	0xbf6c3802	-0.9227296
149	0x3e7e8e85	0.24859054
150	0x3f04ac43	0.5182535
151	0x3d8ea3ec	0.06964859
152	0xbebc1bd4	-0.3673998
153	0x3f866bc0	1.0501633
154	0xbf0ac91b	-0.5421311
155	0xbed1e871	-0.4099765
156	0xc012efaa	-2.295878
157	0x3f2a5464	0.6653502
158	0x3eeb60c3	0.4597226
159	0xbf3c548d	-0.73566514
160	0x3e3bd01c	0.18341106
161	0x3e91cf1f	0.28478333
162	0x3e55fda6	0.2089754
163	0x3e65747b	0.22407715
164	0xbe7af88f	-0.2450888
165	0xbe6007cf	-0.21877979
166	0x3e45d7cf	0.19320606
167	0xbe394ed3	-0.18096475
168	0xbecbbf10	-0.39794207
169	0x3de495cc	0.11161384
170	0xbe5d11c7	-0.21588813
171	0xbdff4541	-0.12464381
172	0x3e67dba7	0.22642384
173	0x3e63d825	0.22250421
174	0xbe5c5e3f	-0.21520327
175	0xbc2debf5	-0.010615339
176	0xbe864457	-0.26224014
177	0x3d6695b2	0.056295104
178	0xbe3d7f3d	-0.18505569
179	0x3e469154	0.19391376
180	0xbe2c0c5b	-0.16801588
181	0xbddd74b2	-0.108132735
182	0xbe05e68e	-0.13076231
183	0x3dfe0d0b	0.124048315
184	0x3e5558f2	0.20834711
185	0x3e6e1420	0.23249865
186	0x3e32ea9f	0.17472313
187	0x3dc93bb8	0.098258436
188	0x3e464136	0.19360813
189	0x3e8cc948	0.27497315
190	0x3d64633a	0.055758692
191	0xbe40a1e3	-0.18811755
192	0xbd78c4fb	-0.06073473
193	0xbeacd816	-0.3375861
194	0x3d577201	0.052598957
195	0xbe8c9f25	-0.27465168
196	0x3ec56e18	0.38560557
197	0x3e56e9b9	0.20987596
198	0xbcc5695b	-0.024098089
199	0x3badb6eb	0.0053013465
200	0xbc962963	-0.018330282
201	0xbe173a3a	-0.14768305
202	0xbf48c422	-0.78424275
203	0xbc691494	-0.014226098
204	0x3db48fae	0.08816467
205	0xbde2b9a3	-0.11070564
206	0xbe8edc7f	-0.279026
207	0xbf39b7b8	-0.7254596
208	0xbe3de5b6	-0.18544659
209	0x3ec29593	0.3800474
210	0x3d0a13e2	0.033710368
211	0x3e188f4b	0.14898412
212	0x3eb9289a	0.3616379
213	0x3e28c974	0.16483098
214	0xbe8f0a24	-0.27937424
215	0x3d9e501c	0.077301234
216	0x3ee54ace	0.44783634
217	0xbdaff10b	-0.08590897
218	0x3ebb4349	0.36574772
219	0xbe16b0a9	-0.14715828
220	0xbe21a529	-0.1578566
221	0x3d3e6e81	0.046492103
222	0xbd057f17	-0.032591905
223	0x3d64cd8a	0.05586008
224	0xbe5ed726	-0.2176176
225	0x3e424206	0.18970498
226	0xbdf5d884	-0.12004188
227	0xbdaa2aca	-0.083089426
228	0x3c8f2617	0.017474217
229	0xbe701956	-0.23447165
230	0xbdb5769c	-0.088605136
231	0x3e047f94	0.12939292
232	0x3dc0f942	0.09422542
233	0x3e3e20e3	0.18567233
234	0xbeb735f6	-0.35783356
235	0x3e5eb9b9	0.21750535
236	0xbd68a597	-0.056798544
237	0x3d3279ec	0.043573305
238	0x3d98c8b0	0.07460153
239	0x3d435475	0.047687966
240	0xbeb97fe8	-0.36230397
241	0x3e1d621a	0.15369454
242	0x3e22ac98	0.15886152
243	0x3e1c5446	0.15266523
244	0xbe9e8e54	-0.30967963
245	0x3d9add43	0.075617336
246	0xbde29e49	-0.11065347
247	0xbcdc7efc	-0.02691602
248	0xbe166958	-0.14688623
249	0xbe17dfe0	-0.14831495
250	0xbe1f82c3	-0.15577225
251	0xbde3e368	-0.11127359
252	0x3d1c523c	0.038164362
253	0x3d187671	0.03722233
254	0xbc99b951	-0.018765124
255	0x3d7f6bc7	0.062358644

sequential_1/dense_2/BiasAdd/ReadVariableOp:0 f4 [32]
0	0xbc3a8885	-0.011385088
1	0xbf0ab020	-0.54174995
2	0xbea61164	-0.32435143
3	0xbdfe0f33	-0.12405243
4	0x3e6e292a	0.2325789
5	0x3eac4080	0.3364296
6	0x3faa9f7a	1.3329918
7	0xbefbd014	-0.4918219
8	0x3f8732e3	1.0562404
9	0x3f4f48f2	0.8097068
10	0x3e275056	0.1633924
11	0x3f22d635	0.63608104
12	0xbf97cd56	-1.1859539
13	0xbfafd3fd	-1.3736569
14	0xbf1bf050	-0.6091356
15	0xbeab7e3f	-0.33494756
16	0xbddf9731	-0.10917509
17	0x3e6f0763	0.23342662
18	0xbe65f6a8	-0.22457373
19	0x3f077e8f	0.5292749
20	0x3f3faa3d	0.7486914
21	0xbdf96c30	-0.12178838
22	0xbe98741a	-0.29776078
23	0xbd3aeed8	-0.045637935
24	0x3ea26d42	0.31723982
25	0xbf8474d1	-1.034815
26	0x3eeaed40	0.45884132
27	0x3ea3b780	0.31975937
28	0x3ffff52b	1.9996694
29	0xbf15d8cf	-0.5853395
30	0xbe5f9e66	-0.21837768
31	0x3f05bdb0	0.52242565
