models/sequential.onnx (onnx, 7075 bytes, 4 tensors)

sequential/dense_1/MatMul/ReadVariableOp:0 f4 [32, 6]
-0.032728914 0.113945566 0.059827574 -0.21142268 -0.060926642 -0.17695312 -0.02062768 -0.31854385
-0.28592965 -0.1140028 -0.31490543 0.43500468 -0.34061822 0.295179 -0.21667449 0.058411684
0.33512178 0.34308752 0.10700055 -0.07080473 0.14413324 -0.07446578 0.076958284 0.16899794
0.23520187 0.006000474 -0.39008942 0.36078125 0.2769015 -0.098141335 -0.6864777 0.0015217813
-0.45912206 0.015820397 -0.056527387 -0.09554282 0.09460657 -0.1880189 -0.0121451635 -0.16177246
0.14810377 0.09286689 -0.5206587 0.09587654 -0.39788157 -0.054971423 -0.2799535 0.29124424
0.07880312 -0.12494825 0.21981591 0.13552548 -0.05306843 0.3586564 -0.05565609 -0.25196442
-0.04622837 -0.2028504 0.009024136 0.28214332 0.20825185 0.049503654 0.08327005 -0.21863088
-0.12496083 -0.061833072 -0.08588097 -0.12069496 0.09882602 -0.36327687 -0.10045689 0.27219003
-0.26138556 -0.124002926 -0.08142417 -0.15795851 0.18379527 -0.1947628 0.021441497 0.12738252
-0.2064853 -0.22106038 0.20892064 0.3579801 -0.07627688 0.15109742 -0.1942912 -0.047491785
0.18840887 0.23500271 0.21544684 -0.1331598 0.14685799 -0.053480417 0.23220463 0.052921593
0.15121314 -0.3116959 -0.39513513 0.414846 -0.34913442 0.16253848 -0.38827604 -0.22944543
0.19993433 0.035520107 -0.25670204 -0.0392205 0.17353658 -0.017824534 0.044511452 0.10108075
-0.17400204 -0.30465627 -0.14435557 0.29160294 -0.03315883 0.2940988 -0.18100631 -0.09317167
-0.084966905 -1.1798699 0.36897677 -0.34970868 0.3730106 -0.016343178 0.22811042 -0.0744648
0.09159237 0.11738262 -0.25970262 0.5523988 -0.07009495 0.054452814 0.09520896 0.23611626
0.041490104 -0.22872972 -0.04505167 -0.23274614 0.2033265 -0.3471201 -0.27181748 -0.3509641
-0.15357886 -0.23290539 -0.40762272 -0.12641476 -0.19640471 0.10019623 0.12959763 0.021000057
0.023422938 0.30436614 0.06464121 0.20523281 -0.044218622 0.36582237 0.2633102 0.21793649
-0.13088416 0.061518684 -0.32003424 0.029922869 -0.01158921 -0.016978191 -0.054905843 -0.061698865
0.27590623 0.15863834 0.121701695 -0.29746377 -0.09425165 -0.34987834 -0.33571926 -0.37098506
-0.5025398 -0.20088233 -0.23744091 0.0842126 -0.76756334 0.24507241 -0.05490941 -0.3653498
0.03425634 -0.039937425 -0.27690953 0.041257825 -0.013301019 0.24118134 0.13450007 -0.20504187
00000000: c10e 06bd 4b5c e93d c20d 753d 307f 58be
00000010: 378e 79bd 3333 35be 61fb a8bc 2e18 a3be
00000020: 5f65 92be 4d7a e9bd 493b a1be efb8 de3e
00000030: 8365 aebe b421 973e ebdf 5dbe 1741 6f3d
00000040: 1595 ab3e 2ba9 af3e 1b23 db3d 1202 91bd
00000050: aa97 133e 8481 98bd 4e9c 9d3d cc0d 2d3e
00000060: c2d8 703e a09f c43b cdb9 c7be 52b8 b83e
00000070: 09c6 8d3e 53fe c8bd 01bd 2fbf 8276 c73a
00000080: 0c12 ebbe c799 813c 4389 67bd f4ab c3bd
00000090: 17c1 c13d 0788 40be 82fc 46bc aea7 25be
000000a0: 84a8 173e ff30 be3d e349 05bf eb5a c43d
000000b0: 22b7 cbbe b729 61bd 1156 8fbe f71d 953e
000000c0: 8863 a13d dee4 ffbd 6c17 613e 31c7 0a3e
000000d0: 485e 59bd d0a1 b73e a4f7 63bd 7b01 81be
000000e0: f659 3dbd 04b8 4fbe f8d9 133c 1775 903e
000000f0: f93f 553e 58c4 4a3d 7d89 aa3d c6e0 5fbe
00000100: 77eb ffbd ad44 7dbd 5de2 afbd eb2e f7bd
00000110: 4c65 ca3d 6dff b9be 58bc cdbd 7e5c 8b3e
00000120: 54d4 85be 3ff5 fdbd b7c1 a6bd e0bf 21be
00000130: d434 3c3e e66f 47be 14a6 af3c 9070 023e
00000140: e270 53be a75d 62be 4bef 553e 2b49 b73e
00000150: 0e37 9cbd 48b9 1a3e 46f4 46be bf86 42bd
00000160: 41ee 403e 8da4 703e 199e 5c3e 0b5b 08be
00000170: f161 163e 480e 5bbd 0dc7 6d3e 50c4 583d
00000180: 9ed7 1a3e 9b96 9fbe 274f cabe b266 d43e
00000190: bfc1 b2be 7d70 263e 1ecc c6be bef3 6abe
000001a0: 96bb 4c3e 887d 113d 736e 83be ada5 20bd
000001b0: 93b3 313e c204 92bc a451 363d 6d03 cf3d
000001c0: 972d 32be e8fb 9bbe f2d1 13be fb4c 953e
000001d0: 8ed1 07bd 1e94 963e b859 39be cad0 bebd
000001e0: 2103 aebd fa05 97bf 86ea bc3e 040d b3be
000001f0: 3ffb be3e 21e2 85bc c795 693e 0081 98bd
00000200: c894 bb3d 4d66 f03d bef7 84be 026a 0d3f
00000210: f18d 8fbd ea09 5f3d eafc c23d 76c8 713e
00000220: 87f1 293d 2038 6abe 1a88 38bd 0155 6ebe
00000230: d234 503e bab9 b1be a92b 8bbe 91b1 b3be
00000240: c743 1dbe c07e 6ebe edb3 d0be df72 01be
00000250: 511e 49be ae33 cd3d 3eb5 043e 5008 ac3c
00000260: 76e1 bf3c e1d5 9b3e 9c62 843d 8d28 523e
00000270: 961e 35bd 124d bb3e 98d0 863e be2a 5f3e
00000280: 7f06 06be 04fb 7b3d 87db a3be ce20 f53c
00000290: abe0 3dbc d915 8bbc f3e4 60bd f3b7 7cbd
000002a0: 9543 8d3e 1772 223e bd3e f93d 2c4d 98be
000002b0: 0207 c1bd 4123 b3be 65e3 abbe c1f1 bdbe
000002c0: 73a6 00bf 19b4 4dbe b623 73be a877 ac3d
000002d0: 087f 44bf 43f4 7a3e b1e8 60bd 210f bbbe
000002e0: 6050 0c3d 6d95 23bd 16c7 8dbe f7fd 283d
000002f0: 84ec 59bc 3ef8 763e 63ba 093e 7ff6 51be

sequential/dense_1/BiasAdd/ReadVariableOp:0 f4 [6]
-0.023752993 -0.02443212 -0.27202132 -0.57066417 -1.158132 1.6669737
00000000: a395 c2bc df25 c8bc 6146 8bbe 0c17 12bf
00000010: ab3d 94bf 655f d53f

sequential/dense/MatMul/ReadVariableOp:0 f4 [40, 32]
0.11825996 -0.18330346 -0.11554 0.16544461 -0.1919161 -0.12030856 0.14409743 -0.18713792
-0.10893233 0.08250635 -0.064821534 -0.2408641 -0.26242092 0.109638974 -0.06516461 0.001853402
0.23982516 -0.116341844 0.09918988 0.21068114 -0.008933461 -0.2373987 -0.16959482 0.020139284
0.023825966 0.18833733 -0.07601724 0.08240689 -0.03447633 -0.12835564 0.058469158 0.07262978
-0.047356967 0.044378344 -0.092984535 0.06378727 0.008536589 -0.009453445 0.020751623 -0.15155284
-0.038793977 0.07041016 0.047811396 0.093669236 -0.17393637 -0.008055274 0.11546466 -0.03970101
-0.23264676 -0.2209818 0.13339879 -0.021800987 -0.04008521 -0.13246904 -0.29254493 -0.034966998
-0.034663927 -0.03706372 -0.13010833 0.14898016 -0.2464679 -0.037089948 -0.12183506 0.020425597
0.07225448 -0.14676961 -0.24681976 -0.05365182 -0.15349086 0.12321951 -0.044595543 0.12295149
-0.19192602 -0.003891992 0.22198194 -0.22650112 0.094701156 -0.028438505 -0.0022122401 -0.060039233
-0.2441966 -0.2677416 -0.26341948 -0.0562707 -0.28462604 0.2547106 -0.08124919 0.07299359
0.13887376 0.0830879 0.1737937 -0.27126202 -0.14496224 -0.12500952 -0.26576647 0.18025978
0.19466293 -1.3829079 -0.056606654 0.2868472 0.13052268 0.1977488 -0.7721684 -1.1953934
1.2326972 -0.36127856 0.54701936 -0.5130383 0.5718426 0.6246077 0.7768975 -0.8824153
-0.48163104 -0.021026297 -0.08586691 0.5540844 -0.74934506 -0.54955184 0.7202242 -0.15794726
-0.22884649 -0.34224355 -0.026587147 -0.1141686 -0.19524777 -0.39570114 0.24538255 -0.32990134
0.8772069 -1.5292928 -0.32459247 -0.66588724 -0.10536739 1.0017577 0.07686921 0.04327425
-1.2619426 -2.1072006 -0.08472326 -0.014284957 0.28913158 -1.0206327 -0.93175703 0.70135725
-0.5530877 0.21464445 2.2798898 0.104427956 0.40692824 -0.6381376 1.4849172 0.41226774
-1.0959992 -1.0785437 0.45159757 1.0128437 0.031189797 -1.2725496 1.7486993 1.5320859
0.17937565 0.12296837 -0.27415234 -0.20703933 -0.07661875 0.20049326 -0.07644661 -0.025810154
-0.16968538 -0.109098114 0.003731939 0.22235835 -0.3344302 0.042509645 0.17799321 -0.10453489
-0.2491031 -0.11161 0.37267923 -0.18762185 0.099400125 -0.036763 0.30897716 -0.27050766
0.058487922 -0.11139516 0.1287542 -0.22692762 0.07639137 -0.06945666 0.1800797 -0.103052676
-0.2752445 0.2475935 -0.12827712 -0.1669342 -0.08020978 -0.15045191 -0.036649667 -0.31977624
-0.30771056 0.085580885 -0.7266059 0.07016366 -0.036753166 -0.060258888 -0.06618797 0.113740034
-0.21253568 -0.0064178477 -0.5522658 -0.19063966 0.24241857 0.13754082 0.17873119 -0.20869751
-0.24132408 -0.042715367 -0.21071617 0.033743408 -0.2902503 -0.109393105 0.36978003 -0.115768366
-0.38860357 0.056690805 -0.23070692 -0.19082879 -0.07750649 -0.39101046 -0.12529898 -0.16744263
0.2913628 -0.18531144 -0.1353398 -0.100543894 0.2185115 -0.049973387 0.08481284 0.32905093
-0.22092827 0.1487501 -0.018470349 -0.03808438 0.31614774 0.12234032 -0.07054682 -0.049464393
-0.0065484317 -0.13145347 0.1960734 -0.06399375 0.03627709 -0.1557896 0.4159119 -0.17794049
00000000: 4732 f23d e7b3 3bbe 3ca0 ecbd 506a 293e
00000010: a785 44be 5664 f6bd 478e 133e 15a1 3fbe
00000020: ea17 dfbd 17f9 a83d 27c1 84bd 14a5 76be
00000030: 095c 86be 668a e03d 0675 85bd daed f23a
00000040: ba94 753e a244 eebd 1024 cb3d ccbc 573e
00000050: a75d 12bc a518 73be 44aa 2dbe 24fb a43c
00000060: ac2e c33c 80db 403e edae 9bbd f2c4 a83d
00000070: 0d37 0dbd a96f 03be 5b7d 6f3d ecbe 943d
00000080: 61f9 41bd 11c6 353d ad6e bebd e6a2 823d
00000090: 0ddd 0b3c 9fe2 1abc 4fff a93c ab30 1bbe
000000a0: 6fe6 1ebd 3433 903d e2d5 433d a8d5 bf3d
000000b0: 601c 32be 45fa 03bc bc78 ec3d 879d 22bd
000000c0: f43a 6ebe 0e49 62be b199 083e fc97 b2bc
000000d0: 6430 24bd f7a5 07be 73c8 95be 8e39 0fbd
000000e0: c3fb 0dbd 21d0 17bd 1e3b 05be 418e 183e
000000f0: 1562 7cbe a1eb 17bd a984 f9bd 9553 a73c
00000100: 28fa 933d c64a 16be 52be 7cbe 03c2 5bbd
00000110: b52c 1dbe 835a fc3d d1a9 36bd fecd fb3d
00000120: 4188 44be ca10 7fbb 3c4f 633e e9ef 67be
00000130: aef2 c13d def7 e8bc 3bfb 10bb b3eb 75bd
00000140: ac0e 7abe 6d15 89be ebde 86be 1b7c 66bd
00000150: 81ba 91be 6e69 823e fa65 a6bd aa7d 953d
00000160: ec34 0e3e fd29 aa3d faf6 313e dbe2 8abe
00000170: fb70 14be 7f02 00be 8b12 88be 0596 383e
00000180: b855 473e 2003 b1bf 61dc 67bd a3dd 923e
00000190: bda7 053e a97e 4a3e d4ac 45bf a702 99bf
000001a0: 06c9 9d3f 81f9 b8be 7609 0c3f 7a56 03bf
000001b0: 4764 123f 4ae6 1f3f c1e2 463f f8e5 61bf
000001c0: 5898 f6be 573f acbc feda afbd 7ad8 0d3f
000001d0: 14d5 3fbf 6eaf 0cbf 9d60 383f edbc 21be
000001e0: bc56 6abe 8c3a afbe 4acd d9bc 3ad1 e9bd
000001f0: 08ef 47be 5799 cabe 9045 7b3e d4e8 a8be
00000200: a290 603f debf c3bf fc30 a6be 9677 2abf
00000210: dcca d7bd 9939 803f 9b6d 9d3d 5740 313d
00000220: 5687 a1bf 60dc 06c0 6383 adbd 740b 6abc
00000230: 0e09 943e 18a4 82bf a187 6ebf 268c 333f
00000240: 2897 0dbf c1cb 5b3e b7e9 1140 53de d53d
00000250: e658 d03e fc5c 23bf c411 be3f c214 d33e
00000260: b449 8cbf b80d 8abf cc37 e73e dda4 813f
00000270: bf81 ff3c e8e2 a2bf 61d5 df3f 641b c43f
00000280: 40ae 373e d7d6 fb3d b25d 8cbe 1e02 54be
00000290: 4bea 9cbd 1b4e 4d3e 0a90 9cbd d16f d3bc
000002a0: 01c2 2dbe d56e dfbd 8c93 743b e8b1 633e
000002b0: 6f3a abbe 981e 2e3d da43 363e 6316 d6bd
000002c0: e214 7fbe c993 e4bd d0cf be3e f11f 40be
000002d0: 4b92 cb3d cd94 16bd 4132 9e3e fb7f 8abe
000002e0: 0891 6f3d 2523 e4bd 24d8 033e b75f 68be
000002f0: 1473 9c3d 4b3f 8ebd d066 383e 480d d3bd
00000300: d9ec 8cbe 2789 7d3e 145b 03be cdf0 2abe
00000310: 0645 a4bd 1110 1abe f61d 16bd b6b9 a3be
00000320: 3d8c 9dbe 0845 af3d d802 3abf f7b1 8f3d
00000330: 7d8a 16bd 06d2 76bd 8f8d 87bd 89f0 e83d
00000340: f4a2 59be cf4c d2bb 4b61 0dbf 0b37 43be
00000350: 933c 783e 80d7 0c3e 4f05 373e cdb4 55be
00000360: a91d 77be 4ff6 2ebd fbc5 57be 8736 0a3d
00000370: b09b 94be 7e09 e0bd cf53 bd3e f717 edbd
00000380: 0cf7 c6be 9e34 683d 6f3e 6cbe 9f68 43be
00000390: b9bb 9ebd 8632 c8be 604e 00be 1576 2bbe
000003a0: 812d 953e 48c2 3dbe 8496 0abe f5e9 cdbd
000003b0: 7bc1 5f3e e5b0 4cbd 5bb2 ad3d 5d79 a83e
000003c0: 053b 62be f251 183e 214f 97bc 5efe 1bbd
000003d0: 1ede a13e 908d fa3d da7a 90bd 2d9b 4abd
000003e0: 3a94 d6bb bd9b 06be 77c7 483e 280f 83bd
000003f0: 4997 143d 4f87 1fbe 68f2 d43e 0836 36be

sequential/dense/BiasAdd/ReadVariableOp:0 f4 [32]
-0.73633075 1.6161119 0.11843852 0.67708313 -0.040753473 -0.7966648 -0.14206722 -0.3002592
1.4686916 1.5216115 0.33380693 0.22838414 -0.37770522 1.0581247 0.6622175 -0.88090956
0.37429947 -0.27361944 -1.7327492 0.020632586 -0.60598135 0.30182108 -1.1450567 -0.11058487
0.8331205 0.7732259 -0.25729835 -0.6750332 -0.050225552 0.82383525 -1.49587 -1.0499414
00000000: 2c80 3cbf c1dc ce3f e58f f23d 5255 2d3f
00000010: 1ded 26bd 39f2 4bbf 127a 11be 93bb 99be
00000020: 16fe bb3f 2ac4 c23f bee8 aa3e 88dd 693e
00000030: 9462 c1be a170 873f 1687 293f 4a83 61bf
00000040: 2ea4 bf3e d917 8cbe baca ddbf ab05 a93c
00000050: 9821 1bbf 4b88 9a3e 3891 92bf 527a e2bd
00000060: 6347 553f 22f2 453f 9cbc 83be face 2cbf
00000070: 4fb9 4dbd dee6 523f ab78 bfbf 7b64 86bf
